…
==> Options: Namespace(att_file='/scratch/saraansh/Attribute-and-Simile-Classifiers-for-Face-Verification/attr.pkl', batch_size=128, gamma=0.1, lr=0.001, model='CNN', num_epochs=50, sample_thresh=0.75, save_path='/scratch/CNN_neural_net_att_Mustache', step_size=12, test_dir='/scratch/saraansh/Attribute-and-Simile-Classifiers-for-Face-Verification/test', testbatch_size=128, train_dir='/scratch/saraansh/Attribute-and-Simile-Classifiers-for-Face-Verification/train', trait='Mustache', weight_decay=4e-05, workers=10)
Using GPU: True
train /scratch/saraansh/Attribute-and-Simile-Classifiers-for-Face-Verification/train 3082
train Positive ->  1321
train Negative ->  1761
test /scratch/saraansh/Attribute-and-Simile-Classifiers-for-Face-Verification/test 2830
test Positive ->  286
test Negative ->  2544
CNNNet(
  (features): Sequential(
    (0): Conv2d(3, 32, kernel_size=(3, 3), stride=(2, 2))
    (1): BatchNorm2d(32, eps=1e-05, momentum=0.1, affine=True, track_running_stats=True)
    (2): ReLU()
    (3): MaxPool2d(kernel_size=2, stride=2, padding=0, dilation=1, ceil_mode=False)
    (4): Conv2d(32, 64, kernel_size=(3, 3), stride=(2, 2))
    (5): BatchNorm2d(64, eps=1e-05, momentum=0.1, affine=True, track_running_stats=True)
    (6): ReLU()
    (7): MaxPool2d(kernel_size=2, stride=2, padding=0, dilation=1, ceil_mode=False)
    (8): Conv2d(64, 128, kernel_size=(3, 3), stride=(2, 2))
    (9): BatchNorm2d(128, eps=1e-05, momentum=0.1, affine=True, track_running_stats=True)
    (10): ReLU()
  )
  (classifier): Sequential(
    (0): Linear(in_features=4608, out_features=1024, bias=True)
    (1): BatchNorm1d(1024, eps=1e-05, momentum=0.1, affine=True, track_running_stats=True)
    (2): ReLU()
    (3): Linear(in_features=1024, out_features=128, bias=True)
    (4): BatchNorm1d(128, eps=1e-05, momentum=0.1, affine=True, track_running_stats=True)
    (5): ReLU()
    (6): Linear(in_features=128, out_features=2, bias=True)
  )
)
Epoch 0/49
----------
==================================================================================
Train Loss:  tensor(0.6531, device='cuda:0', grad_fn=<DivBackward0>)
Epoch 1/49
----------
==================================================================================
Train Loss:  tensor(0.4139, device='cuda:0', grad_fn=<DivBackward0>)
Epoch 2/49
…
